AIS Upskilling/DOM/frozen_lake_rl/deep_rl/frozen_lake_dqn.pth (torch, 24792 bytes, 6 tensors)

network.0.weight f4 [64, 16]
000000 e2 2d 82 bd c4 0c 74 3c 86 c2 4c bd 41 2f 7d bc
       -0.06356408 0.014895622 -0.0499902 -0.015453161
000010 ba aa 46 bd 80 dc 51 bb ff 64 0a 3b 28 6e 63 be
       -0.04850266 -0.0032022297 0.0021117327 -0.2220999
000020 43 72 1a bd a0 42 66 bd 27 f0 e5 bc 54 38 56 be
       -0.037706625 -0.056215882 -0.028068615 -0.20919925
000030 b0 53 d5 3c 7f 52 a9 bd 8c 41 94 3b 2c 4a ac bd
       0.026040882 -0.08267688 0.0045244154 -0.08412585
000040 98 13 32 bd 1e f2 8a bd 5e a9 ba 3b 96 12 50 bd
       -0.043475717 -0.067844614 0.0056964597 -0.050798975
000050 e0 56 f9 bd 0c 75 e2 3d 34 c2 b8 bd 98 2a b5 bd
       -0.12174773 0.11057481 -0.09021416 -0.08846015
000060 c2 34 38 3e ea 69 6c be 29 02 67 3d b8 f0 90 bd
       0.17988876 -0.23087278 0.056398544 -0.070771635
000070 80 b2 4b 3e c9 7c 5e bd a9 27 af 3e 92 a8 0e be
       0.19892311 -0.054318223 0.34209946 -0.13931492
000080 18 73 8d bd 90 23 5c be f5 8a fd 3b 50 a8 6e be
       -0.06906718 -0.21497941 0.0077375122 -0.23306394
000090 8c 61 86 3e 1c d0 ca 3d 6d 8e 32 3d b8 70 be 3d
       0.26246297 0.09902975 0.04359286 0.09298843
0000a0 e8 77 df bd 5a 25 7c be f9 1b 98 3e e0 9d 1d 3d
       -0.10911542 -0.24623623 0.2970884 0.03848064
0000b0 5c 7e 13 be ff 69 70 bd d2 ed 72 bd 2e 4f 64 be
       -0.14403671 -0.058694836 -0.059308834 -0.2229583
0000c0 60 3d 0b 3e 3e 93 5c be a6 57 01 be 2c ea a7 bd
       0.13597631 -0.21540543 -0.12631091 -0.081989616
0000d0 20 f8 2a bd e4 f8 b4 3d d8 a6 1f bd bc 70 28 be
       -0.041740537 0.088365346 -0.038977474 -0.16449255
0000e0 00 78 dc 3a 34 29 ba bd 18 15 55 3e 30 40 33 3d
       0.0016820431 -0.0908989 0.20808828 0.043762386
0000f0 00 f8 1d be 48 46 52 bd 6c fa 4b be e0 aa bd bd
       -0.15426636 -0.051336557 -0.19919747 -0.092611074
000100 59 ae 1d 3e 0d e4 85 be 14 3e 42 bd 15 b7 7d be
       0.1539854 -0.2615055 -0.047422484 -0.24776872
000110 4e 26 ad ba 40 44 bc 3d 03 2d 78 be c0 ae d4 3b
       -0.0013210268 0.09192705 -0.2423592 0.0064905584
000120 21 d6 3d be 1e fe 55 3e 00 f4 7d 3e 2c 35 83 3d
       -0.18538715 0.2089772 0.2480011 0.06406626
000130 64 ce c4 bd 20 8f 86 3e 10 20 de bd ee ff 0c be
       -0.096096784 0.2628107 -0.10845959 -0.13769504
000140 7a 9d 5f be 9f 9b 0e 3d f7 a8 2b be 9e 4c 3a be
       -0.21837416 0.03481638 -0.16763674 -0.1819329
000150 12 ae a9 bd 6a 2b 52 be 28 1d b2 bc a8 6a 69 3d
       -0.082851544 -0.20524374 -0.021742418 0.05698648
000160 4c 83 30 3d 40 cc 1c bd 3f 88 2a be be b0 2d 3e
       0.043093964 -0.038280725 -0.16653536 0.16961953
000170 b2 5a 52 3e f3 10 1d 3d 1f ef 35 3d 88 9f fb 3d
       0.2054241 0.038346242 0.044417497 0.122862875
000180 60 97 bb bd b0 a4 f0 3d 8b dc 48 3e 10 28 02 be
       -0.09159732 0.11750162 0.1961538 -0.12710595
000190 98 38 2a bd 22 41 30 be b2 88 63 3e ec a7 e0 bd
       -0.04155788 -0.17212346 0.22220114 -0.109695286
0001a0 6a fd 14 be a0 ec 73 bd fe 1f 7f be bc 61 53 be
       -0.14549795 -0.059551835 -0.24914548 -0.20642751
0001b0 a0 e0 e1 3d 4a 85 7f be 38 6f e5 3d bc 04 1b 3e
       0.11029172 -0.2495319 0.11202854 0.15138525
0001c0 d2 46 ce 3c 5b 7d ce 3d f3 e7 4c 3d 12 6a 0d 3e
       0.025180254 0.100825034 0.05002589 0.13809994
0001d0 76 f8 3d be b8 90 18 3e 02 8e a7 bd c0 8d 59 be
       -0.18551812 0.14898956 -0.08181383 -0.2124548
0001e0 82 04 08 be b0 10 bf 3d 5b d5 f2 3d ae 34 3a be
       -0.1328297 0.09329355 0.118571006 -0.18184158
0001f0 c0 ed 1f be f7 f5 43 3d 11 af 89 3d 8e 59 41 3e
       -0.15618038 0.047841992 0.067228444 0.18881819
000200 43 d7 13 3e 5b d4 d7 bc e8 63 13 3e 60 a2 01 be
       0.14437585 -0.026346376 0.1439358 -0.12659597
000210 5b 7a 10 3e de cf 68 be 34 6e 58 be 58 00 f6 3d
       0.14109175 -0.22735545 -0.21135789 0.12011784
000220 60 3e 88 bd 92 3e 81 3e 97 39 68 3e 14 7c e4 3d
       -0.06652522 0.2524305 0.22678219 0.111564785
000230 08 32 6e be de ef ac 3e f0 bb 47 be 60 73 76 bc
       -0.23261273 0.33776754 -0.19505286 -0.015042156
000240 c8 a4 2f 3e a8 5d fe bd f0 78 e8 3c 38 6f 73 bd
       0.17152703 -0.12420207 0.02837798 -0.05943224
000250 d4 a6 cb bd b8 dd 05 bd 74 be 17 be d4 0a d6 bd
       -0.09943929 -0.03268215 -0.14818746 -0.10451284
000260 90 2d 84 bd eb 93 6b 3e 3a af 30 be 60 2f 0f bc
       -0.06454003 0.23005645 -0.17254344 -0.008739322
000270 80 09 24 3d d0 be db 3c 01 0e 98 3d de d6 6a 3e
       0.040048122 0.026824385 0.07424546 0.22933528
000280 94 3a 9e bd 0c 3f 11 be 40 71 b0 3c 32 53 6d be
       -0.07726017 -0.14184207 0.021538377 -0.23176268
000290 1c d2 1a 3d c0 14 a8 3d 00 92 d3 bc 78 6a 4e 3d
       0.037798032 0.08207083 -0.025826454 0.050394505
0002a0 6f 6f a0 3d 75 00 18 3d 8c 08 a8 bd 98 15 62 3d
       0.07833754 0.03710981 -0.08204755 0.055196375
0002b0 40 a8 c4 bc da d5 ed 3e 04 ad 84 3d 70 7e 5c bd
       -0.02400601 0.46452218 0.064783126 -0.053831518
0002c0 dd 3a fc 3d d9 bd 42 be 5f 7d 44 be 05 1b 08 be
       0.12315915 -0.19017734 -0.1918845 -0.13291557
0002d0 a6 56 c2 3d 00 98 15 be af c8 f1 bd da 8d 3e be
       0.09489183 -0.14608765 -0.118058555 -0.186088
0002e0 bc e9 04 3e f6 43 ac 3e 3a 65 b8 bd d0 f5 85 3c
       0.12979788 0.336456 -0.090036824 0.016352564
0002f0 ac 00 15 3e 6f 37 0b 3e 32 09 73 be c8 ee 5a be
       0.14551038 0.13595365 -0.23733976 -0.2138015
000300 c4 a8 c3 bd c0 89 11 3d c4 62 f4 3d 00 d8 5d 3d
       -0.09553674 0.03553176 0.119329005 0.05416107
000310 f0 56 87 bc 86 5f 17 be 92 43 12 be 96 9a 42 be
       -0.016520947 -0.14782533 -0.14283589 -0.19004282
000320 2f 34 3c 3e ca 19 03 3e d2 3b 3b 3e e4 bb 78 be
       0.18379281 0.12802806 0.18284538 -0.24290425
000330 50 c8 39 bd c6 9c 21 3e 7a 2a 67 be 5c 40 74 3e
       -0.04535705 0.1578246 -0.22574797 0.23852676
000340 19 80 ed 3c f4 3a a6 ba 6c bb 3d be 72 65 7a be
       0.028991746 -0.0012682364 -0.18528527 -0.24452761
000350 3a d7 bf 3d 1c 44 6b be ef d0 a9 bd 90 30 8c 3c
       0.09367223 -0.229752 -0.08291804 0.017113
000360 3c 71 fe bd 54 3c 3d be 86 ba 23 be 82 ab 5f 3e
       -0.124239415 -0.18480045 -0.15989122 0.21842769
000370 a0 d6 19 bc 18 eb c5 bd 17 6b aa 3e 40 18 61 bc
       -0.0093895495 -0.09663981 0.33284828 -0.013738692
000380 b4 15 42 3e 5d 85 ff 3d 86 94 de 3d c8 89 39 be
       0.18953592 0.12476609 0.10868172 -0.18118966
000390 52 e9 87 3d 50 46 c4 bd 77 ba 81 3c 60 66 6a 3c
       0.06636299 -0.095837235 0.015835984 0.014306635
0003a0 94 44 8c 3d a0 55 26 be 99 cf 3b ba 68 54 46 3e
       0.06849018 -0.16243601 -0.00071644183 0.19368136
0003b0 40 51 23 bc 8b 06 4d 3e 2a f6 83 3e 6c fb 10 3e
       -0.009968102 0.20022027 0.25773746 0.1415841
0003c0 30 55 a3 3d b2 42 61 3e ca b4 ac bd d0 4a b1 3e
       0.079752326 0.21998098 -0.0843292 0.3462739
0003d0 e8 de 3a be 18 ca 23 be 75 8e 3c be a0 2d e5 3c
       -0.18249094 -0.15995061 -0.18413718 0.027975857
0003e0 0a 64 57 3d 90 20 7b be 3f f0 3f be 02 67 14 3e
       0.05258564 -0.2452414 -0.1874399 0.1449242
0003f0 60 75 4c 3d 0f 29 ff bd e8 34 a0 3e 98 eb 57 be
       0.049916625 -0.12459003 0.31290364 -0.21085966

network.0.bias f4 [64]
000000 53 fe 97 bc b1 e8 13 3d b5 b2 3c 3d 40 92 6f be
       -0.018553888 0.036110584 0.046068866 -0.23395634
000010 9f 37 26 3e a0 bc 42 bd 76 ca 85 be 82 a0 15 be
       0.16232155 -0.047543168 -0.26131028 -0.1461201
000020 06 d8 0b bd 11 2e 6e be 74 d8 c0 bd 25 50 94 3d
       -0.034141563 -0.2325976 -0.09416285 0.07241849
000030 db 1d 50 be 20 47 55 3d b0 01 03 3e bb 82 26 3e
       -0.20323889 0.052069783 0.12793612 0.16260807
000040 91 a5 f1 bd 8a 0c 18 be d3 48 26 be 8b 7c 52 be
       -0.117991574 -0.14848533 -0.16238718 -0.20555322
000050 08 3d 40 be 5c 68 26 be 26 a1 71 be 20 06 64 be
       -0.18773282 -0.16250747 -0.2359663 -0.22267962
000060 15 f8 45 3e 38 8f 45 bc b2 14 60 be 99 73 82 3d
       0.19332917 -0.012058072 -0.21882895 0.06369705
000070 44 24 5d be d8 a1 5a be a8 b6 53 be 34 ed 76 be
       -0.21595865 -0.21350801 -0.20675147 -0.24113923
000080 62 4b fb 3d 72 aa 06 be dc e4 72 3e 5b 73 93 bd
       0.122702375 -0.13150957 0.23720115 -0.07199737
000090 ab 40 17 be 67 41 31 be 2d ab fe bd 8b 1d 79 be
       -0.14770763 -0.17310105 -0.12434993 -0.24327676
0000a0 8c 99 9c bd 34 d9 97 bd 1b ed 0e 3e 61 53 fb bd
       -0.07646474 -0.07414475 0.13957636 -0.12271763
0000b0 92 0c 08 be f2 2f 69 be be e2 13 3e 49 bc bd bd
       -0.13286045 -0.22772196 0.14441964 -0.09264428
0000c0 7a 66 19 3e fc 7b ff 3d b3 b5 a1 3d f2 07 5a be
       0.14980498 0.1247482 0.078959845 -0.21292093
0000d0 da 28 57 bb c0 13 5d bd 23 ed 80 be 73 27 3e be
       -0.0032830746 -0.053973913 -0.2518092 -0.18569736
0000e0 e2 0e c2 3c 3f bc 5e 3d 49 56 29 3e d1 b2 0d 3e
       0.023688737 0.054378744 0.16536821 0.13837744
0000f0 b0 aa a0 ba 92 9f 73 be 61 e8 d3 3c 9a e8 c0 3d
       -0.00122579 -0.2379134 0.025867643 0.09419365

network.2.weight f4 [64, 64]
000000 ca be e2 3d f2 b6 ab be 16 78 01 be 22 6c f3 bb
       0.110715464 -0.33538014 -0.12643465 -0.007428662
000010 0b a3 35 3d ba b1 18 be 9d 94 69 3d a6 51 53 be
       0.044344943 -0.14911547 0.057026494 -0.20636615
000020 05 4f 6b 3d fd 79 ce 3d cd ca 30 bd 32 08 4c 3e
       0.057448406 0.10081861 -0.043162156 0.19925001
000030 fb 19 8c bd 08 c6 6f be a4 13 6c be e0 01 ea bd
       -0.06840893 -0.23415387 -0.23054367 -0.11426139
000040 7f 0c 46 3d cb e6 02 be 7b ed 43 be 9f 8f f7 3d
       0.04835176 -0.12783353 -0.1913356 0.120879404
000050 b6 03 eb 3d 76 be 50 bc 76 be e0 bc cf cf 21 3d
       0.11475317 -0.012740722 -0.027434569 0.039504822
000060 2a 72 8e bd 94 c9 34 3e cd 82 6a 3d 2d aa 11 3e
       -0.06955369 0.17655021 0.057253648 0.14225073
000070 1c a5 ee bd 83 67 ac 3c 04 54 af bd 7a 16 ba bd
       -0.11652586 0.021045452 -0.085609466 -0.09086318
000080 40 cf 23 3e 7a a8 e5 3c 57 b4 dc 3d 39 d5 f9 3c
       0.15997028 0.028034437 0.107765846 0.03049718
000090 f8 7d 19 3d df 02 a6 bd 7e 91 50 3d ab 83 87 3d
       0.03747365 -0.08106016 0.050920002 0.066169105
0000a0 44 55 ce bd c4 98 32 bd 38 de 91 3c c8 f3 8d bc
       -0.10074857 -0.04360272 0.017806157 -0.017328158
0000b0 02 50 b8 bc fc dc db bd 38 62 4f be a6 a4 17 be
       -0.022499088 -0.10735509 -0.20252311 -0.14808902
0000c0 c0 ea 46 be 84 3d bc 3d 97 f4 88 3e 58 1a 73 3d
       -0.19425488 0.09191421 0.26749107 0.059351295
0000d0 96 49 d9 3c c3 b4 a8 bd 22 9c fb 3c 04 68 03 3e
       0.026524346 -0.082376026 0.030714098 0.12832648
0000e0 8b 46 13 3e 39 3c 02 be 19 4d 8a be 3d 51 25 3e
       0.14382379 -0.12718286 -0.27011946 0.16144271
0000f0 0b 11 71 3d 2c f9 aa 3d b2 ba 92 bd 2f 20 41 3e
       0.058854144 0.08348307 -0.071645156 0.18859933
000100 8e 9e dc bc 0f cd fb 3d ea 32 1a be 5d 0c 09 be
       -0.026931074 0.12294971 -0.15058485 -0.13383622
000110 0e 70 b2 bd 40 1d c4 bc 42 ff 83 bd 23 38 7e bd
       -0.08712779 -0.023939729 -0.06445171 -0.062065255
000120 c7 d7 b2 bd f0 7c d9 3c f4 75 e3 bb 04 0f 0c 3d
       -0.087325625 0.026548833 -0.0069415513 0.034194008
000130 7f 1d 7c 3d 92 e8 36 3e 44 39 0d 3e 0a 53 f3 3d
       0.061551567 0.17862156 0.13791376 0.11881073
000140 88 ef a6 3c 85 ff 68 3c 03 95 3c bc 6a 7b 65 bd
       0.02037789 0.014221077 -0.011510137 -0.0560259
000150 a4 da 85 3d f8 cf 4a bd 07 50 57 bd af fa 6b 3d
       0.06535843 -0.04951474 -0.052566554 0.057612117
000160 3e c9 c5 3d 6a e8 2c bd ae 14 3e 3d fa f3 34 3d
       0.096575245 -0.042213835 0.04640644 0.044177987
000170 ba b7 5c 3d 3d 52 13 3d 4e 08 c4 bd 74 63 6a 3d
       0.053886153 0.0359671 -0.095718965 0.057223752
000180 cf ed aa 3d d0 8f 92 bd 83 50 fd 3d ae 43 86 bd
       0.0834614 -0.07156336 0.12368872 -0.065558776
000190 26 0f a1 3d 0b 64 70 3d e1 60 b2 bd 6f 8e c0 bd
       0.078642175 0.05868916 -0.087098844 -0.09402167
0001a0 4c a5 9c 3d a9 1c 78 bd fc 00 d0 bd 2c 64 a2 bd
       0.076487154 -0.060574207 -0.10156438 -0.079292625
0001b0 ad ff e4 3b 68 6f be 3c 62 c8 c2 3d 1c ac 36 bc
       0.0069884867 0.023246482 0.09510876 -0.0111494325
0001c0 30 21 14 3e 08 1c 8a 3d 9b a4 9a be 5c 45 1a 3d
       0.14465785 0.06743628 -0.3020371 0.037663803
0001d0 e4 a8 eb bd 0b 48 1d 3e cb 0b 21 3d 59 49 47 bd
       -0.11506823 0.15359513 0.039317887 -0.048653934
0001e0 87 f1 f3 3c 66 b0 81 bc 9c aa 91 bd 86 dd c7 bd
       0.029778255 -0.015831184 -0.07112619 -0.09759049
0001f0 95 81 01 3d 00 f9 b9 3b 14 3f 67 bd bf c1 cf bd
       0.03161772 0.005675435 -0.05645664 -0.10144376
000200 60 65 c7 bc 7e cf da 3d ce 15 e8 bd 40 24 5b 3b
       -0.024340332 0.10684107 -0.11332284 0.0033438355
000210 94 9e b1 bd ea b7 a1 3d 16 93 be 3d 1c 78 5e 3d
       -0.086728245 0.07896407 0.09305398 0.054313764
000220 c8 c1 fb 3c b0 ca e4 3c 96 19 ef bd ec 7f ea bd
       0.03073205 0.02792868 -0.11674802 -0.114501804
000230 b4 28 8b 3d 44 a5 fa 3d c0 22 0c bc 54 4f c6 bd
       0.06794873 0.12238553 -0.008553207 -0.096830994
000240 7a 85 df 3d 62 6e 83 3d a0 18 8c 3d 8a 1f bb bd
       0.109141305 0.06417538 0.06840634 -0.09136875
000250 80 9d c6 bd 80 d5 ca 3d 88 81 a4 3c a8 37 a6 3c
       -0.096980095 0.09904003 0.020081297 0.02029021
000260 92 45 f1 bd a0 82 8b bc 92 7e b9 3d 50 7d b2 3d
       -0.117808476 -0.01703006 0.090573445 0.08715308
000270 f0 e2 6e 3c 28 8b da 3c 40 db fd 3b 68 ad ae 3c
       0.014580473 0.026677683 0.007747084 0.02132292
000280 d0 16 e3 bc 9c 5c b9 3d 68 14 e4 bd 32 bf c2 bd
       -0.027720839 0.09050867 -0.11136705 -0.09509124
000290 0a ae cf 3d 02 ab 92 bd 6e 3b 9f 3d c0 b6 84 bc
       0.10140617 -0.071615234 0.07775007 -0.016200423
0002a0 52 2b b5 bd a0 70 d2 3d 40 71 5a bc fe 73 ba 3d
       -0.08846153 0.10275388 -0.013332665 0.09104155
0002b0 42 fb b7 bd de c9 94 bd 0c 19 3e 3d b8 a5 f9 3c
       -0.089834705 -0.072650656 0.046410605 0.030474529
0002c0 64 2a 59 bd 3c e8 2f 3d 4a 01 ca bd a4 28 c6 bd
       -0.053018942 0.042946085 -0.09863527 -0.0967572
0002d0 b4 8c 85 3d 66 5c dc bd a0 ea 02 3c 80 bc ba 3c
       0.065209776 -0.10759811 0.007990509 0.022794962
0002e0 c0 dd 1b bd c0 59 f1 bb bc 6e 31 3d 66 7c c4 bd
       -0.038053274 -0.0073654354 0.043318495 -0.095940396
0002f0 08 77 d7 bc 48 dd b6 3d e0 e8 96 3d 24 e6 b7 3d
       -0.026301876 0.08928925 0.07368636 0.08979443
000300 d6 ab 27 3d 0e 99 33 bd b6 f1 39 bd 6f 6e 83 3d
       0.04093536 -0.043847136 -0.04539653 0.06417548
000310 2f 49 79 3d 07 1c 61 3d 92 4e d0 3d ca 54 b9 3d
       0.06086081 0.05495837 0.10171236 0.09049375
000320 11 68 c6 3d 41 07 b3 3d ef b4 91 bd 6e bb 8f bd
       0.09687818 0.08741618 -0.071145885 -0.07018171
000330 68 4e e1 bd 9f 38 b1 3b 0e 27 f0 bb d5 7e 08 3e
       -0.11001283 0.005408361 -0.0073288744 0.13329633
000340 0d 67 c3 3d 27 05 11 be da 34 20 bd 1c 91 bb 3d
       0.0954114 -0.14162122 -0.039112903 0.09158537
000350 bc 54 1a bd 14 bb 01 3d ad af db bd 1d f5 03 3e
       -0.037678465 0.031672552 -0.10726867 0.12886472
000360 18 ad ce bd 01 c6 b2 bd a0 39 68 bd 79 ec 75 bd
       -0.10091609 -0.087291725 -0.05669558 -0.06003997
000370 7c 71 91 bc cd a2 8c bd 28 33 4a 3d e4 d9 d1 bd
       -0.017754309 -0.06866989 0.049365193 -0.102466375
000380 cb 9d a9 3d 5f 96 08 3c b7 a6 b2 bb b1 d2 bc bd
       0.0828205 0.0083366325 -0.005452003 -0.09219874
000390 df c5 96 3d 4c 6d 99 3d 15 d9 0d be 21 04 29 3c
       0.0736196 0.0749155 -0.13852341 0.010315926
0003a0 4c 3e 81 3d cf 2d bb 3d f7 e0 cf bd b0 b7 ff bd
       0.0631071 0.09139597 -0.101503305 -0.124862075
0003b0 b9 20 e5 bd 7c e3 d0 3d fe cd 33 bd 69 4d 00 be
       -0.11187882 0.10199639 -0.04389762 -0.1252953
0003c0 91 ea c7 bd de 93 41 bd 27 3a 0c 3d c4 95 43 bd
       -0.09761537 -0.047260158 0.034235146 -0.04775025
0003d0 70 b8 92 bd f9 c9 d5 3d c5 67 f9 3b f0 f2 d4 3c
       -0.07164085 0.10438914 0.0076112472 0.025994748
0003e0 e6 89 6e 3c 94 c6 07 3e bf 18 c0 3d 15 9e e0 3d
       0.014559245 0.13259345 0.0937972 0.10967652
0003f0 67 b2 dd 3d 7e 0e d5 3d 1b 2d 80 bd 58 81 e0 3d
       0.10825043 0.10403155 -0.06258603 0.1096217

network.2.bias f4 [64]
000000 2f 7b 1e 3d 5b d4 54 3e 9e 0b 98 bd 7c ab f1 bd
       0.038691696 0.20784132 -0.07424091 -0.11800286
000010 fe c5 b4 bd 09 7a 93 3c 60 a8 24 3e f4 ec 2a bd
       -0.088268265 0.018002527 0.16079855 -0.041729882
000020 9f d1 32 3e 32 ca da bd 5f 57 74 3c 45 1c 93 bd
       0.17462777 -0.10683097 0.014913409 -0.07183126
000030 fe 6b 34 3d 2b 41 d5 bd 2d 16 2f 3e 8d ce cb 3d
       0.044048302 -0.104128204 0.17098303 0.09951506
000040 25 94 59 3e 9a ee bb 3d 40 20 30 bc ab b1 04 bd
       0.21247919 0.09176369 -0.0107498765 -0.032396
000050 2e 13 21 bd de 56 f7 bd a2 8e da bd 97 49 3f bd
       -0.03932493 -0.120771155 -0.10671736 -0.04670104
000060 70 3a 61 3c bc 3c da bd 0a 5a 10 be c7 d9 0d 3e
       0.013746843 -0.106561154 -0.14096847 0.13852607
000070 d4 83 b9 bd e4 6d cc 3c 62 1d 56 ba fb a5 9c 3d
       -0.09058347 0.024954744 -0.00081678305 0.07648846
000080 6d 32 45 bd 14 02 84 bd a9 ee 23 3d 22 52 76 bd
       -0.048143793 -0.06445709 0.040022526 -0.06013692
000090 85 d8 68 3e e0 23 1d 3d 6d 6d b2 3d 32 19 de bd
       0.22738846 0.03836429 0.087122776 -0.108446494
0000a0 51 f0 21 3d f6 ec d3 bd a2 b9 f0 bd 63 81 4f 3d
       0.039535824 -0.10347931 -0.11754157 0.050660502
0000b0 ea 9e b1 bc 88 11 6f bd 47 8e 5a bb c8 a5 a3 bd
       -0.021682221 -0.05836633 -0.0033348964 -0.07990605
0000c0 bf 79 4e 3d 0a ec 11 be f2 0d 56 bd 6d 37 91 bd
       0.050409075 -0.14250198 -0.052259393 -0.0709065
0000d0 2a fb 49 3d 12 a4 ec 3d 8c 00 d6 bd 9d 69 15 be
       0.049311794 0.115547314 -0.10449323 -0.1459107
0000e0 ec 70 00 3d 60 c7 80 3c f4 89 f6 bd 2e a5 e5 bd
       0.03135769 0.01572007 -0.12038031 -0.11213146
0000f0 a1 ff 0a 3e 74 14 16 3e 72 44 5b 3e 5b 83 da 3c
       0.13574077 0.1465624 0.21412829 0.026673963

network.4.weight f4 [4, 64]
000000 60 b3 95 3d 10 c5 22 3d b2 3a 9f bd 7b 9b 09 bd
       0.07309604 0.039738715 -0.07774867 -0.033595543
000010 40 5c 6c 3b 4b 05 73 bd a9 ad 8b 3c 01 6b 33 3d
       0.0036065727 -0.05933122 0.017050581 0.04380322
000020 c3 04 97 3d e2 3e 09 3d b0 55 ee bc 67 23 78 bd
       0.07373955 0.033507235 -0.029093593 -0.060580637
000030 39 7c 14 3c ba 02 fe 3d 86 4a 38 3e de b8 87 3c
       0.00906282 0.12402864 0.17997178 0.016567644
000040 8f 63 49 3d 06 7f 39 3e bc 29 87 bd 31 3c 3d bd
       0.049167212 0.18114862 -0.06599757 -0.04619998
000050 6d dd c8 3b f0 65 20 bd f4 98 f4 bd 36 98 94 bc
       0.0061299116 -0.039159715 -0.11943236 -0.018138986
000060 70 0e 25 bb 53 2d 87 3e ab 2b b0 3d f6 a9 c2 3b
       -0.0025185607 0.26401767 0.08602079 0.005940671
000070 c0 66 9a 3c b5 8e 52 3d b6 26 27 3e 9b bd b5 bd
       0.018847823 0.051405627 0.16323361 -0.08874055
000080 68 2e d9 bd b0 18 6c 3d ae 5e b7 3c 5b eb 65 3c
       -0.106045544 0.05764073 0.022384014 0.014033164
000090 1f 84 a7 3d 76 3b 46 bd 77 48 2e 3c 2b 3f 7f bd
       0.08179497 -0.04839655 0.010637394 -0.0623161
0000a0 7e 33 36 bb f3 b2 39 bd 58 a6 c1 3d 5b 58 16 3e
       -0.0027801688 -0.045336675 0.09455556 0.14682142
0000b0 00 8d d1 3d 4c 0b 39 bd 2c 9b 4e bf c0 68 69 bd
       0.10231972 -0.04517679 -0.80705523 -0.056984663
0000c0 41 a3 23 3d 33 a3 f3 3d 93 ff 79 3c db 55 0d be
       0.039950613 0.11896362 0.015258688 -0.13802283
0000d0 89 03 5c be a0 30 93 3b 1b d1 4f bc 66 9f 33 3d
       -0.21485724 0.0044918805 -0.012684132 0.043853186
0000e0 06 85 ae 3c 33 12 ff 3c 94 66 26 bd f0 f6 72 bd
       0.021303665 0.031136608 -0.04062517 -0.05931753
0000f0 a3 e6 e8 be 99 1e f3 3c ed 37 b2 3d 98 cf f6 b9
       -0.45488462 0.029677676 0.08702073 -0.00047075446
000100 19 bd 09 3e ea b4 5d 3d 90 4e 02 3d 78 c2 a2 bc
       0.13451041 0.05412761 0.031813204 -0.01986812
000110 00 24 dd bd ec 88 29 bd 6a bc 26 3e 58 59 eb 3d
       -0.10797882 -0.041390345 0.16282812 0.1149165
000120 59 9d fe 3a ad c5 94 3d c0 23 d3 bc ad 25 53 bd
       0.0019425555 0.07264266 -0.025773883 -0.051549602
000130 39 b0 3f bd 2c 4e 9d bc bd 00 8d 3d e4 d5 4c 3e
       -0.04679892 -0.019202314 0.068849064 0.20003468
000140 e2 c7 23 3e 47 53 bb 3d d8 66 81 bd dd 8f a4 bc
       0.15994218 0.09146743 -0.06318444 -0.02008813
000150 48 2a de 3d d2 0f e1 3d 78 f8 d7 3d 54 19 36 bd
       0.10847908 0.109893456 0.105454385 -0.04445775
000160 58 ff 98 3d 05 47 d1 3e ba 98 e1 3c d4 10 90 3d
       0.07470578 0.40874496 0.027538646 0.0703446
000170 52 f8 90 bd dd 72 2b 3e 44 66 3c 3d 8a e0 79 3d
       -0.07078613 0.16743036 0.045995966 0.061005153
000180 00 62 23 3b d8 5f d7 bc aa 72 51 bc 2c ab c0 bd
       0.0024930239 -0.026290819 -0.012783686 -0.094076484
000190 1c 5d eb 3d ad 60 3a bd f5 5e 07 3c c0 60 07 3c
       0.114923686 -0.045502353 0.008262386 0.008262813
0001a0 c2 9c 19 3e 35 ca aa 3d 41 b7 8f bd 2e 1e 47 3e
       0.15001205 0.08339349 -0.07017375 0.19445106
0001b0 8b 10 2d bd f1 4a e0 bc 66 5f 03 bf 19 c7 c2 bc
       -0.042252105 -0.027379485 -0.5131744 -0.023776578
0001c0 d9 70 10 3d f5 f3 92 bd 32 b7 cc bd e7 03 3b 3d
       0.03526387 -0.07175437 -0.09995879 0.04565802
0001d0 fd 56 a6 ba 2b 0a 21 3e 02 4e da 3d 8d 3d 95 3d
       -0.001269072 0.15726535 0.1065941 0.072871305
0001e0 da 98 02 3e fc 4a 7c bd 08 51 86 bd 4e 59 8e 3d
       0.1275362 -0.06159495 -0.06558424 0.06950627
0001f0 14 38 cc 3d 00 c7 a0 3d ad 8d e6 3d 84 5d 8c bd
       0.099716336 0.07850456 0.11257491 -0.06853774
000200 f4 f6 c0 be 4b f2 1f 3e 92 8f 89 bd f0 21 81 3d
       -0.3768841 0.15619771 -0.06716837 0.06305301
000210 d0 ae 9d 3d 85 2c 0e bd 3b 06 dd 3d 4d 6a 8e 3d
       0.076993585 -0.034710426 0.10792204 0.06953869
000220 fd 15 5c 3d f0 ba 71 3d cb 20 29 bd 8f 17 4a bd
       0.053731907 0.059016168 -0.04129104 -0.049338873
000230 26 51 17 3d 9e 58 ba bd 8e 94 0b 3e ba 6c 32 3b
       0.036942624 -0.09098934 0.13630888 0.002722545
000240 d2 2b 6c 3a 22 c5 b9 3d 70 0e 0d 3c c0 b1 86 3d
       0.0009009215 0.09070803 0.008609399 0.06576872
000250 2e fa f6 3c 80 95 db 3d a8 2d bd bc f1 d0 09 3d
       0.030148592 0.10721874 -0.02309306 0.033646528
000260 dc 74 12 3e e1 27 f5 3e 55 3c 21 bc c8 c8 c0 b7
       0.14302391 0.47881988 -0.009841044 -2.298168e-05
000270 b0 22 bf 3d 83 7a 8d 3e 0b 92 98 3d af be 1e bd
       0.09332788 0.27632532 0.074497305 -0.03875607
000280 3c cd 5f 3d e8 53 36 3d 1a ea f6 3c 81 38 01 bd
       0.054639086 0.044513613 0.030140925 -0.031548027
000290 b9 7e 24 3e de 95 b0 3d fb 75 18 3e 2c a5 fc bd
       0.16063966 0.08622335 0.14888756 -0.123361915
0002a0 82 68 b4 3d 4d 35 ab 3a 8f c2 9c 3d 1b 05 b6 3d
       0.08808996 0.001306215 0.076542966 0.088876925
0002b0 d3 77 3a bd e5 f1 8d bb 0e d9 ab 3c a3 c8 8e bd
       -0.04552443 -0.0043318146 0.020977523 -0.06971862
0002c0 7e 24 45 3d 46 c3 7d bd 43 ac 88 3d 15 5c 3e bd
       0.048130505 -0.061953805 0.06673481 -0.046474535
0002d0 92 c9 f3 bd 97 5f 2a bd 55 f3 9c bc ac 17 db bd
       -0.11903681 -0.041595068 -0.019158999 -0.106978744
0002e0 09 6b 03 bd 72 28 80 3b 88 de 16 3d 70 0f bd bd
       -0.0320845 0.0039110715 0.036833316 -0.0923146
0002f0 bc 22 17 be 67 0f 9d 3b 5b d5 f5 3d cc 5b 06 bd
       -0.14759344 0.004793096 0.12003585 -0.032802388
000300 2c f2 0b bd 4b 53 13 3e 40 78 36 3d 6e d5 cb 3d
       -0.0341665 0.14387242 0.044548273 0.09952818
000310 94 6d e2 3d 5e e6 b1 bd 47 a1 05 3e 69 23 2d be
       0.110560566 -0.08686517 0.13049804 -0.16908039
000320 05 22 68 3d 00 a7 10 3d 48 23 39 bd 8a 44 0a 3d
       0.05667307 0.035315514 -0.045199662 0.03375677
000330 ef 61 91 3d 5d 1a 80 3d 9b 13 52 3d bf 6b c9 3d
       0.070987575 0.062550284 0.05128823 0.09835004
000340 ce ae 2e 3e 3c 86 cb 3b 84 2b 96 bd 9a a0 ee 3d
       0.1705887 0.0062110703 -0.07332519 0.11651726
000350 bd 02 d6 bd 00 12 1c bd 80 3c 73 bd 7e 55 b2 bc
       -0.10449741 -0.038103104 -0.05938387 -0.021769281
000360 7c 78 80 3d 4c 06 ed 3a e7 c3 b6 bd eb 48 3a 3d
       0.062729806 0.0018083542 -0.08924084 0.045479696
000370 50 46 23 3c 6e c3 bb bd 31 a7 b6 3d e9 e9 90 3c
       0.009965494 -0.09168135 0.08918608 0.017689662
000380 bb cc f2 3d 2c fa 2f 3d 5e d1 59 bb 65 3d 0c bd
       0.118554555 0.042963192 -0.0033236365 -0.034238238
000390 5d aa 3b 3e db 26 52 bd 36 70 86 3d d0 68 27 bd
       0.18326707 -0.051306587 0.06564371 -0.04087144
0003a0 6c cc c3 3d bb 32 ed bd 80 35 de bd 08 41 d0 bc
       0.09560475 -0.11581942 -0.10850048 -0.025421634
0003b0 b0 eb 8a bd 9c 13 d6 3c 36 3a 78 bf 09 d8 8c 3d
       -0.06783235 0.026132397 -0.9696382 0.06877143
0003c0 18 d7 1e bf 79 0a a7 3d ee 4e 96 bd 51 ff 2f bd
       -0.62046957 0.081562944 -0.073392734 -0.042968098
0003d0 6d ae 74 3d 2e 99 db 3d d8 74 00 3d 91 63 0a bd
       0.059736658 0.10722576 0.03136143 -0.03378636
0003e0 7b 18 ac 3c dc 40 cc 3c 34 0e d0 bd 08 db dd 3d
       0.021007767 0.024933271 -0.10158959 0.108327925
0003f0 83 a3 70 3d 0e ae 60 3d a3 60 66 3e ea 4a 94 bc
       0.058749687 0.05485349 0.22497801 -0.018102128

network.4.bias f4 [4]
000000 4d 85 75 3e 36 1a 6e 3d ce 05 8c 3d 52 ef cc 3d
       0.23976631 0.058130465 0.06837045 0.10006584
